stronka/PT/O3_PT_lstm_model.pth (torch, 17398 bytes, 9 tensors)

lstm.weight_ih_l0 f4 [64, 1]
00000000: c52a a73e 9641 a33e e85a 283e 8be7 553e
00000010: 361d 8a3e e9bc 313e 07a6 38bd 7753 983e
00000020: 6847 d63e 0941 893c 586a 09be 4e46 8a3e
00000030: 54f1 ed3e ca3a 523e ef16 053f 5cd1 86ba
00000040: e526 7a3e 9774 ea3e bef8 813e f262 b13e
00000050: aa51 f4be 4e85 be3e 2d71 dcbe b549 223e
00000060: 3118 aebe d7a6 a1bc 0a83 14bf f661 013e
00000070: d635 f1be 9fcd 07bd 4306 50be b02d 80be
00000080: c449 2f3e 7120 49bd d231 ed3d 322a 98bb
00000090: a923 043f 5eb5 3e3e 843e 8f3e 86d1 f0be
000000a0: 3078 f3be a6a4 98bd 6526 b53e ccbb 81be
000000b0: 4a04 023f 9487 3b3d 981e 883e 15ea c2be
000000c0: 1a00 2b3f 4c57 b83e 5f10 6d3e d134 f23e
000000d0: c892 053e 3436 213e 9dd4 773d 4710 fa3e
000000e0: 91e1 8a3c fa8c 583e 0947 c4be 7d3c c33e
000000f0: 2e6a e73d 314e e1bc 14ac 203e 5702 81be
0.32649818 0.31885976 0.16440928 0.20889108 0.2697541 0.1735722 -0.04508021 0.2975118
0.41851354 0.016754644 -0.13419473 0.27006763 0.4647318 0.20530239 0.5198812 -0.0010285783
0.244289 0.45792076 0.25385088 0.34645802 -0.47718555 0.37211078 -0.43055096 0.1584843
-0.34002832 -0.019732876 -0.5801245 0.12635025 -0.47111386 -0.03315508 -0.20314889 -0.25034857
0.17117983 -0.049103204 0.11581768 -0.004643702 0.51616913 0.18623874 0.27977383 -0.47034854
-0.47552633 -0.07453279 0.35380855 -0.2533859 0.50787795 0.045783594 0.2658584 -0.38069215
0.6679703 0.36004102 0.23150776 0.4730592 0.13044274 0.15743333 0.0605055 0.48840544
0.016953262 0.21147528 -0.38335446 0.38132086 0.11299549 -0.027503105 0.15690643 -0.25197098

lstm.weight_hh_l0 f4 [64, 16]
00000000: 82ae 693e 9fd8 303e 6577 6cbe 7fca 1a3c
00000010: 6cce 9f3e 8797 243e afc4 8a3e 5578 b4be
00000020: 392b d73d 16f3 2a3b 62a6 03bc 5ae5 b53d
00000030: 9738 963e c010 3b3e fb91 87bc 952a 7dbd
00000040: 5478 d53d 38a3 143d d9a7 00be 90ab 28be
00000050: 871a d7ba e3eb 973c eab6 843e 21a7 01bd
00000060: c596 26be dbb2 81be 8f7a 5c3e 4891 a7be
00000070: 7f83 dcbc 2274 293d 53ed 2ebd a5ea 15be
00000080: a377 8e3d 8769 823e d1b0 18be 293c b73d
00000090: af95 063e 82be d23c 1f26 1ebd cf0a 6abd
000000a0: d036 a63c 53f0 e33d 1196 803d 7251 a83e
000000b0: eadf a43d 97e0 503e 13c5 66be 7e65 2c3e
000000c0: 65d7 e53d 9570 b33d 30d9 213e d496 ea3c
000000d0: dc76 d53e eb11 7d3e e42a ebbb 9c02 89be
000000e0: 8e40 7fbe 386d 8fbe d6d0 67be bec4 0ebd
000000f0: a3d2 cd3d 889f 9fbc 41ee 33bd d601 2d3d
00000100: 93c3 d03e 55bd 43bf 35a4 1cbf 88ec 10bf
00000110: 6cbf 70bf 2166 0f3f 601c 3bbf 6900 0cbe
00000120: d65a 6c3f d5e8 80be 5b08 45bf 94f9 6d3c
00000130: ceb8 06bf 4df6 debe 0fce cebe 169a 543f
00000140: e3a6 be3d ba2d 0ebe dc8f 26be f43b 31be
00000150: 8775 b13e ba4d d53d 281c 4ebe c2b5 48bd
00000160: 7e77 82bd 9a6f 68be 2611 643e 6f68 013e
00000170: 4ea8 613d 12a2 273d a9c6 6e3d ed52 523e
00000180: 4ecb 6b3e 4fe2 e0bd 6f29 93be f02a c3be
00000190: be60 33bd 9c6f da3d 508c babe 3514 4dbc
000001a0: 3d1a 343e e1d4 db3c 279a 6dbe 0463 5ebc
000001b0: 46ce 9bbe 3019 90be bc8a 67be 98be d43d
000001c0: 0126 a83e 82a4 42bd 7bfc 87be e16a 2cbd
000001d0: 7ea7 cebc ea33 803e 17c9 7ebe 8643 6ebe
000001e0: 87ce d03e 5ba2 7cbe 53c4 73be 7bfd 213e
000001f0: 93d6 bfbe b2d2 bdbe f04a a4be 2fc2 473e
00000200: c8b3 be3e 8c00 e7be 8bf7 0abf 1fe5 b1be
00000210: 6c87 a6be 9711 c83e f2d6 3abf 4b78 e5bd
00000220: b474 003f 4465 e4be 1d79 2cbf a384 343c
00000230: 13d2 05bf 6a55 2abf b3ad efbe 6fc6 de3e
00000240: 8807 6bbe 5bb9 603e 2ab7 933e a36c 12be
00000250: 56ce 163e 4309 25be f97b a23c ac86 2f3d
00000260: 610f 1d3e 01c5 593c 00c8 f6bc 86ca 50be
00000270: 613a 56be 1c09 963e 8d1a 213e 0d08 793e
00000280: 6ce8 443d 2a58 bebe 67e5 f7bc 2b53 9abe
00000290: 006b c6be 322f 333c d3f4 473d d2b2 8ebd
000002a0: 2069 133e 4d7c 18be 9d43 f7bd 0c52 68be
000002b0: 1df0 1bbd df10 e6bd 9ea4 503e 45b6 2fbb
000002c0: d837 c63e 55f7 93be 7fba 70be 5969 1ebf
000002d0: 2d24 b1bd 4ffb 8e3c e828 9abe 1638 37bd
000002e0: a97c fa3e a356 68bd 6eb8 cbbe 3d29 673e
000002f0: 4caf 81be 5db0 ebbe 8073 9abd b8a6 413e
00000300: 19e8 353f 5746 5fbf 1ed0 20bf 253f 81bf
00000310: fe8d 03bf c1d4 d13e 5bca 80bf 38f4 88be
00000320: 9db3 6b3f f7db 61bf ce57 8fbf f811 cbbe
00000330: 268e 34bf fb4c 5fbf 6d90 62be c5af 843f
00000340: 4e19 293d 98cb c43d fe2d 633e 02b2 d6bd
00000350: 19c1 6cbe 6973 943d d006 893e 4ce9 dfbd
00000360: cc24 b43d e665 ed3c bd16 84bc 3922 2f3e
00000370: afe4 9abe 3df6 633e 4bcd a7bd e4dc 1a3e
00000380: b7be c33e 00b8 0fbf 27e1 a0be f01a 95be
00000390: 5939 d3be b210 953e b349 37bf e6c1 82be
000003a0: 6349 733e 222f e3be 2620 3ebe 46c5 763e
000003b0: 6302 ccbe 03dd 3abe 6690 533d 8e9a 083f
000003c0: 4d6b e63d bec6 f4be f39a 00bf 0b01 20bf
000003d0: a0df 55bf b29e e43e 1e71 e7be 4b40 3cbe
000003e0: 5482 873e 5a6d 09bf 238b 91be fb57 a4bd
000003f0: d3e7 ccbe 5448 18bf 634a 64be fd1f 033f
0.22820476 0.17270134 -0.2309242 0.009447693 0.31212175 0.16073428 0.27103183 -0.35248056
0.10506291 0.0026084832 -0.008035274 0.08881636 0.2934005 0.18268108 -0.016549101 -0.061808188
0.104233414 0.03628847 -0.12564029 -0.16471696 -0.0016411104 0.018545097 0.25920802 -0.031653527
-0.16268452 -0.25331768 0.21531127 -0.32728028 -0.026918171 0.04137052 -0.0427068 -0.14640291
0.06956413 0.25471136 -0.149112 0.089470215 0.13143037 0.025725607 -0.038610574 -0.057139214
0.020289809 0.111298226 0.06278623 0.32874638 0.08050521 0.20398174 -0.22536115 0.16835591
0.11222724 0.08761708 0.15805507 0.028636374 0.41692245 0.24713866 -0.007176744 -0.26759803
-0.2492697 -0.28013015 -0.22638258 -0.034855597 0.100499414 -0.01948525 -0.04392839 0.04223808
0.4077421 -0.7646077 -0.6118806 -0.5661092 -0.94042087 0.5601521 -0.7309017 -0.13672031
0.92326105 -0.25177637 -0.76965874 0.014524836 -0.5262574 -0.43547288 -0.40391585 0.83047616
0.09309175 -0.13884631 -0.16265815 -0.17308027 0.3465998 0.10415216 -0.20127928 -0.049001463
-0.063704476 -0.22698823 0.22272167 0.12637495 0.05509215 0.040926047 0.058294926 0.20539446
0.23026773 -0.10980665 -0.2874255 -0.38118696 -0.043793432 0.10665819 -0.36435175 -0.012517025
0.17588134 0.026834907 -0.23203336 -0.013573412 -0.30430812 -0.28144217 -0.22611517 0.103879154
0.32841495 -0.047520168 -0.26559815 -0.042094115 -0.02522635 0.25039607 -0.24881397 -0.23267946
0.40782568 -0.24671309 -0.2380536 0.15819351 -0.37468395 -0.3707481 -0.32088423 0.19507669
0.37246537 -0.45117605 -0.5428397 -0.34745118 -0.32525194 0.3907592 -0.7298423 -0.11204585
0.50178075 -0.4460851 -0.67372304 0.011017951 -0.5227367 -0.6653658 -0.4681221 0.43510768
-0.22952092 0.21945707 0.2885068 -0.14299254 0.14727148 -0.16116814 0.019834505 0.042853042
0.15337898 0.013291598 -0.030124664 -0.20389757 -0.20920707 0.29303825 0.15732785 0.24319477
0.048073217 -0.3717664 -0.030260755 -0.30141577 -0.3875351 0.010936545 0.048817467 -0.06967701
0.14395571 -0.14891167 -0.12073443 -0.22687548 -0.038070787 -0.11233687 0.20375296 -0.0026811522
0.3871448 -0.28899637 -0.23508643 -0.618795 -0.08649478 0.017453818 -0.30109334 -0.044731222
0.48923233 -0.05672325 -0.39789146 0.22574325 -0.25329053 -0.46032992 -0.07541561 0.18911254
0.7105728 -0.87216705 -0.6281756 -1.0097395 -0.5138854 0.4098263 -1.0061754 -0.26748824
0.92070943 -0.88226265 -1.1198671 -0.39662147 -0.705294 -0.8722684 -0.22125407 1.0366141
0.041283898 0.09609145 0.22185513 -0.10483171 -0.23120536 0.07248575 0.2676301 -0.1093317
0.08796081 0.028979253 -0.016124124 0.17102899 -0.30252597 0.22261901 -0.081934534 0.15123326
0.3823144 -0.56140137 -0.31421778 -0.29122114 -0.4125469 0.291143 -0.7159683 -0.25538558
0.23758464 -0.44371897 -0.18566951 0.24098691 -0.3984557 -0.18248372 0.05165138 0.5336083
0.11250935 -0.47807878 -0.50236434 -0.6250159 -0.8354435 0.44652325 -0.4520349 -0.18383901
0.2646662 -0.5368248 -0.28426465 -0.080245934 -0.40020618 -0.59485364 -0.22294001 0.51220685

lstm.bias_ih_l0 f4 [64]
00000000: 9cc4 a83d 2571 493e 8bfc 063e 46db 0b3b
00000010: e388 043f 07ab 49be abd5 95bd 7b99 6d3e
00000020: 9ef8 8d3e a6e8 29be 048d 78bd 3652 e13e
00000030: 15e6 893e b7cf 5bbe ca33 c33c d2d3 c53e
00000040: df4b d73d b422 febc 53a3 0cbe b145 06be
00000050: 560c 4abd 4d52 10be f090 783e 5e13 44be
00000060: 1161 a9be 1bbf 2a3e c3d5 44be 53a6 163c
00000070: 4fcf cdbd 0cdc 2e3e fbea e0bd 8906 9cbe
00000080: 3ebb 00be 979f 99bd e5ac 24be fc76 30bd
00000090: f4d0 c3bc c2d9 203d fda7 65be 1ccd a03d
000000a0: 2109 853e 5481 14bd 7229 17be fb59 5d3e
000000b0: 7db7 4abe a7c5 3abe e559 a3bc da82 2b3e
000000c0: 647e 35be 091a da3d b967 b3bd 5136 b03b
000000d0: 9054 693e b7d7 243e 5a2d 553e c478 5c3e
000000e0: d1fa cd3e 0545 09be ccd9 8b3e d5ce 923e
000000f0: ee09 1a3f 8c88 2fbe 8c9f 943d 2071 1e3e
0.08240625 0.19672067 0.13182275 0.0021340414 0.5177137 -0.19694148 -0.073161446 0.2320308
0.27728742 -0.16592655 -0.060681358 0.44008034 0.2693335 -0.21465956 0.023828406 0.3863817
0.10512518 -0.031022407 -0.13734178 -0.13112523 -0.04932817 -0.14093895 0.2427404 -0.19148013
-0.33081868 0.16674463 -0.19222169 0.009194928 -0.100493066 0.17076129 -0.10982319 -0.30473736
-0.12571427 -0.075011425 -0.16081579 -0.043082222 -0.023903348 0.03927017 -0.22427364 0.078516215
0.25983527 -0.03625615 -0.14761904 0.21616356 -0.19796558 -0.18239461 -0.019940326 0.16749135
-0.17723995 0.10649497 -0.08760018 0.005377569 0.22786164 0.16097914 0.20818081 0.21530443
0.4023042 -0.13405235 0.27314603 0.28673425 0.601714 -0.17141932 0.07256994 0.15472841

lstm.bias_hh_l0 f4 [64]
00000000: 7195 ffbc 4161 3f3e 0132 6bbe c73d 8c3d
00000010: 4f7f 123f c356 42be d685 ae3e 3c83 263e
00000020: 9740 113f 2bfd da3d 0a90 7a3e 4bfa 663e
00000030: cff3 fa3e 0928 01be 1e2a aa3e b7a8 7b3e
00000040: 97ce 1c3e ea3c 353e 4335 3ebd 2c0b 9b3e
00000050: 52f8 a3be d999 30be 4de4 233d 5671 10be
00000060: d5e1 923d e9c2 1c3e 1a85 78be c24f 12be
00000070: 1ea0 41bd 76c6 98bd 239e 9dbe 54b6 35bd
00000080: 8ca2 d83d da56 12be 592c 73be ba8c a0be
00000090: ed4d 4fbe f21f cd3c 3bcd 9f3d b248 51bd
000000a0: aca3 ccbd 9927 1cbe 2d28 95bc 5498 ddbd
000000b0: 8863 a6bb 95d3 40be bf8e d7bd 51d3 83bd
000000c0: 7428 23be ed32 c8bd 8d28 bbbd e7ed 33be
000000d0: fede db3e 5b06 7f3e 5b92 b33e cd74 003e
000000e0: 5e46 f53e bf0c 4d3d e4a7 d83d dea2 1ab9
000000f0: 7c10 e03e 19f8 92be 6044 f33e 7cc5 943e
-0.031199189 0.18689443 -0.22968294 0.068477206 0.5722551 -0.1897841 0.34086484 0.16261
0.5673918 0.10692819 0.24469009 0.22556417 0.49014136 -0.12612928 0.33235258 0.24576078
0.15313183 0.17699018 -0.046437513 0.3028196 -0.3202539 -0.17246188 0.040012646 -0.14105734
0.0717198 0.15308727 -0.24269524 -0.14288238 -0.04727184 -0.074597284 -0.3078471 -0.044363335
0.10577878 -0.14290944 -0.23747386 -0.31357366 -0.2024457 0.025039647 0.078028165 -0.05109472
-0.099921554 -0.1524948 -0.018207634 -0.1082007 -0.005077783 -0.18830712 -0.105252735 -0.0643679
-0.159334 -0.09775338 -0.09138594 -0.17571221 0.42943567 0.24904768 0.35072598 0.12544556
0.47905248 0.050060984 0.105788976 -0.00014747257 0.43762577 -0.28704908 0.47513103 0.2905692

lstm.weight_ih_l1 f4 [64, 16]
00000000: 8acf 043d a56c 6fbe 9638 05be 664d 5e3e
00000010: 416f 8b3e 8997 40be c251 233e cfc3 38be
00000020: d0f3 02bd 0d43 8bbe 6272 363e 0487 b4be
00000030: f028 253e 5b18 afbd a001 67bd 7b35 25be
00000040: f1fa 263e aaee 2e3e 3d51 04be 97aa b8bd
00000050: 9e63 3c3e 8eb7 373e 146e 64bd c091 9ebc
00000060: 09ef e83c c9ee 44be 30a3 773c 6f16 383d
00000070: 6c9c 593e d5c6 393e bacc cdbd 278f 8ebe
00000080: 9809 263e b4b8 8cbc e4a6 e1bd 0208 a6bd
00000090: 4e0a 323e 68ab 163e c22e ff3d b75f 8fbe
000000a0: 842e 80be 38f4 b33d c4ba 643e 0256 c0be
000000b0: 4eb3 3f3e 0bf8 243d 923c d03d 9058 77be
000000c0: e253 873e 0c3f 053c 5607 583e 3fc1 043d
000000d0: fc33 f03e c859 bb3d 00ca 5e3e 0884 d63c
000000e0: 1929 35be 926b 9cbe 4f86 893e eedf 40be
000000f0: d3d7 003f d8b4 ecbd cdcd a53c bb23 8ebe
00000100: 1a20 4dbd ee29 6a3d bee9 c8bd 65cf b1bd
00000110: 24c4 b33e 7d1d 97be 9f32 953e 8e6b 6abc
00000120: deb8 3cbe 4c13 c73d 0c98 8f3d e603 a7bc
00000130: f526 aa3e 7728 003e e7b0 973e a8bc 78be
00000140: a205 1f3e 0083 793d 9801 33be 5c63 2a3e
00000150: 6001 fb3d 8f90 673e ba8f 933d 6933 573d
00000160: 923f fabd b82b 043e 7645 a63c a42c 12be
00000170: 6b17 aa3d 44d5 05be 3450 963e 7942 af3d
00000180: 2981 3cbe 61ce 683e ea63 d33c 433a 423e
00000190: 559c d03e e7f9 623e e37f d93d 2078 89bd
000001a0: 1e15 84be f32b 80be e2b2 d1bb b648 f4bc
000001b0: 08c6 983e 6113 d2bd f075 663e d7ed b7be
000001c0: 7ad0 4a3e f604 05bf bce0 62be a917 05bf
000001d0: a7a1 6e3d 7491 033e eab0 16bf 85bf bb3d
000001e0: 5db3 853e 6746 84be c956 89bc 80be 523c
000001f0: 68ba 71be 9597 bcbe c605 4dbe 9c88 033f
00000200: a14e 12be a16c 263e b2e1 c33d 8a99 213e
00000210: 1121 f93e d57a 463e c6c5 813e d83a c23d
00000220: 75b3 0dbe 62fc 77be 44b9 083e 7a26 bcbe
00000230: 54bd f03d 8d5d 59be 12e5 593e 2fd2 a4bc
00000240: fc4b 863e 5606 4abd 1e0b fe3b e9db d0be
00000250: 005b 81be d47b 0ebe eb2a 0cbe 62c4 07be
00000260: a46e 9a3c b91e 5bbe b912 c9bb 31b9 d1bd
00000270: f6d2 3abe fc0c 79bd 33ce 563d 86ac 243e
00000280: 623b 3abe e9c2 223e 74f2 043e 7ddf 193e
00000290: ed03 ac3e 324f 24be 012f 893e d9f9 41bd
000002a0: 6646 b63d 0985 e73d 3440 00bd 93ed 51be
000002b0: a686 263e d8d0 bbbd 59dd 593e f384 9cbe
000002c0: 9102 163d 8661 af3d d2d1 03be 5542 333d
000002d0: 75a7 f93e 495c 643e 8352 523c 6384 0ebd
000002e0: 53e0 283e ae38 e03d 9052 623e 36fe d0be
000002f0: 1563 7e3e 0f00 82bc 2a3c 9abd d649 2cbe
00000300: 6ddc 653e 3dff 80be d252 863c e471 0b3e
00000310: cf5e bb3e 3975 5f3e 7146 a23e accf a6bc
00000320: d755 f33d c380 483b 7bdb 223e 0aab 63bd
00000330: 66af e13e 93a4 eb3d 3d9f a63e 4b9b c93c
00000340: aa0d f33d 8cdc dabe 596f 38be 83e0 87be
00000350: a1dc 3e3e c06e 823e 046e 89be 8695 5e3d
00000360: a714 e63d 32b3 89bd 9022 163d 16d2 c3be
00000370: 2381 d03e b368 0cbe 5545 0b3e 504d 923e
00000380: be97 60b8 4e35 9bbd 6cef 74bb 83ad 2cbe
00000390: d4a6 6a3e cc1e a93d d661 0d3e c66d f03c
000003a0: 4228 35bc d1d8 293e 40f5 a43e 9cdd 14be
000003b0: 2fd4 a63e 8f5e 7abe 6126 a93e e2bb acbe
000003c0: aab4 553e 76c5 403e 0b71 25be 8989 293e
000003d0: 1f6c a63e 3731 e0bc 23ef 073e 7dee 86be
000003e0: cf8e 683d f93c 783d 31db ae3e bbc0 fbbe
000003f0: aad7 bf3e c084 56bd 25f6 613e 16ff 603d
0.032424487 -0.23381288 -0.13009867 0.21709213 0.27233317 -0.18807806 0.15949157 -0.18043445
-0.0319708 -0.27199593 0.17817071 -0.3525926 0.16128898 -0.08549567 -0.056398034 -0.16133682
0.16306664 0.1708323 -0.12921615 -0.090169124 0.18397376 0.17941114 -0.05576904 -0.019356608
0.028434293 -0.19231714 0.0151145905 0.04494327 0.21251076 0.18142255 -0.10048814 -0.27843592
0.16214597 -0.017177917 -0.1101816 -0.08106996 0.17386743 0.14713824 0.1246009 -0.28002712
-0.2503549 0.087868154 0.2233687 -0.3756562 0.18720743 0.040275615 0.10167803 -0.24154878
0.26431185 0.008132707 0.21096548 0.032410856 0.4691466 0.09147984 0.21756744 0.026186004
-0.17691459 -0.3055082 0.26860282 -0.18835422 0.5032932 -0.11557931 0.020239735 -0.27761635
-0.050079443 0.057168894 -0.09810208 -0.086821355 0.3511058 -0.29514685 0.29140183 -0.01430787
-0.18429896 0.097204775 0.070114225 -0.020387601 0.33232847 0.12515436 0.29627153 -0.24290717
0.15529492 0.060915947 -0.17481077 0.16639465 0.12256122 0.22613738 0.07205148 0.052539263
-0.12219156 0.12907302 0.020296793 -0.14274842 0.08305248 -0.13069636 0.29358065 0.085576005
-0.18408646 0.22734977 0.025804479 0.18967538 0.40744272 0.22165643 0.106200956 -0.06712365
-0.2579736 -0.2503353 -0.0063994983 -0.029819828 0.29838586 -0.102576025 0.22505927 -0.35923645
0.1980609 -0.51960695 -0.22156042 -0.5198923 0.058259632 0.12848455 -0.588637 0.09167389
0.26113406 -0.25834963 -0.016765015 0.012862802 -0.23606265 -0.36834398 -0.20021734 0.51380324
-0.14287807 0.16252376 0.09564532 0.15781227 0.4865804 0.19382794 0.25346202 0.0948388
-0.13837989 -0.2421737 0.13351923 -0.36748105 0.117548615 -0.21227093 0.2127879 -0.020119755
0.26229846 -0.04932245 0.00775279 -0.40792778 -0.2526474 -0.13914424 -0.13688247 -0.13258508
0.018851586 -0.21398439 -0.006136265 -0.102404006 -0.18244538 -0.0608034 0.05244274 0.16081437
-0.18186715 0.15894665 0.12983114 0.1502666 0.33596745 -0.16045836 0.26793674 -0.047357414
0.08900146 0.11304671 -0.03131123 -0.20500784 0.16262302 -0.09170693 0.21275844 -0.30570182
0.03662354 0.08563523 -0.12873009 0.04376443 0.48760572 0.22300829 0.012837055 -0.034794223
0.16491823 0.10948311 0.22101808 -0.40818948 0.24842484 -0.015869169 -0.07531007 -0.16825041
0.22447367 -0.2519473 0.016396914 0.13617665 0.3659577 0.2182206 0.31694368 -0.020362698
0.11881607 0.0030594326 0.15904038 -0.055583037 0.4407913 0.115059994 0.32543364 0.024610182
0.118678406 -0.4274639 -0.18011226 -0.26538476 0.18638851 0.2547512 -0.26841748 0.054341815
0.11234408 -0.06723632 0.036654055 -0.3824622 0.40723523 -0.13711815 0.13600667 0.2857461
-5.3547083e-05 -0.075785264 -0.0037374152 -0.16863064 0.22915202 0.08257827 0.13806853 0.029349219
-0.0110569615 0.16586615 0.3221836 -0.14537662 0.32583758 -0.24450134 0.33037093 -0.33737093
0.20869699 0.18825325 -0.16156404 0.16556372 0.32504365 -0.027367217 0.13274817 -0.26353827
0.056776818 0.060605023 0.34151605 -0.4917048 0.37469226 -0.052372694 0.22066553 0.05493077

lstm.weight_hh_l1 f4 [64, 16]
00000000: ff24 cbbd 4b9d c33c 567e 7cbe 638e 773d
00000010: 35a8 6cbd a7e8 1f3e 2440 01bd d67d 263e
00000020: d8d1 04be 95f7 e9bc 05da 13bc d52b ae3d
00000030: 070a 89bc c94c 223e 2cb9 1f3e b797 253e
00000040: de47 973d db74 1cbe e098 3fbd 7ce3 4fbe
00000050: 7a0a c1bb 6284 33be 10c4 c2bd cbe8 483e
00000060: 94db cebc 5344 07be f134 263e 6e44 013e
00000070: 8fa3 0a3e 629d 6a3e 1e02 17be 9ddf 1dbe
00000080: 5b59 a33d 8937 95bd 0699 623e d5cb 633e
00000090: 30b6 b83d 05b7 b43d c67d 89bd 9af2 853e
000000a0: 30ff 513e 4307 bebc 7888 64be e06c 49be
000000b0: 10af b4bd 20de 55be d2c3 86bd 526a 8dbd
000000c0: 41e5 d03d e9cd cabc 18e5 47bd 6561 d93d
000000d0: 6289 a33d 3868 02be f0be b1bd f7cc 31bb
000000e0: b236 b43c e27a c83d 6a08 513e 583f 8abe
000000f0: 90a1 313e 9da6 513e bec7 8fbd b1e9 913c
00000100: e7e8 843e c077 21be a288 2cbe fe1d 87be
00000110: d694 18be 38a6 4d3d c270 44be f990 713d
00000120: 3c83 cebd 4cf6 abbc 4891 44bd 0ceb e33d
00000130: ea77 ebbc 0d0a 913e 34d6 b33d 8b83 7e3e
00000140: f6b3 a5be e477 9b3c dce2 05be a83c 03be
00000150: 7f90 69be 1c6f 033d 65e6 05be ab8f 073a
00000160: e710 a6bd aa2d 84be 2e7d 083e 5b0f 94be
00000170: 0a00 443e 40ea a43d 20ee 57bd 7366 d03d
00000180: c68a 3c3d dcec 143e b7b1 33be 9c95 a7bd
00000190: da87 003e 3781 1bbe 7208 073e 8fc6 6abd
000001a0: 80a8 35be b6a2 063e 2422 ebbd 856a 50be
000001b0: 3251 2f3e 0f17 483e 71a6 0ebd 9244 77bd
000001c0: 51d4 40be c2ad c4bd 40a7 14be e269 a83e
000001d0: dc95 64be b983 a33e 9bcc 83be 6366 5a3e
000001e0: 0d83 323f 7195 f53d 489d ca3e 656c f3be
000001f0: 1cad d93e 9427 62be f714 873d 6ceb b7be
00000200: ff0f f6bc 26f2 543e bb5b 913d e870 b1bc
00000210: 7eba 3fbe 1f5c 36bd 74b9 ff3c 7521 da3d
00000220: 4ac8 3d3e facc 2abe 08e7 f8bd 2ceb ffbc
00000230: 1636 36be 0445 ab3d 8474 8bbd cffa 7ebc
00000240: 640d b2bd 8b33 7d3d e027 70bd 8055 553e
00000250: 9728 0e3e 7025 1e3e 975e 733d c72a 593e
00000260: a3e6 7c3e 45df 24bd f1bd 903e 3747 cabe
00000270: 5a51 633e 5ec8 dd3c 5729 99bd 9953 29be
00000280: 703b 8abe f20e 423e b603 1ebc 5187 893e
00000290: 806f e6bd 8384 3fbe cdb5 443e 8e0c 2c3c
000002a0: 3ef7 553e 93f1 eebd 38b0 d8bd 91be 363d
000002b0: ffb9 893e e1b9 9f3b 0241 89bd cced 5bbd
000002c0: bda5 d43d 0ed3 3bbe e2e3 07be dbc5 a13d
000002d0: 2394 313e 98e8 983d b25f 1abe a13e dc3d
000002e0: 4781 e3bd e97b abbd e835 8dbc 652f 74be
000002f0: 72f4 32be 2735 513d d29c 103d 4906 dabd
00000300: e158 7dbb 3fb5 4fbe a666 8d3c f545 0a3e
00000310: cec2 da3d f98a 883e eae0 41be 2d06 2e3d
00000320: 6d9b bbbd fd8b e93d b203 2bbe 79db 153e
00000330: f05b 713e 09e1 913d 481b 703d 350b 1ebe
00000340: 9a28 603c 687b ccbe f2eb f9bd 9c7c 853e
00000350: 4a11 7abe 5a97 813d fa5e 08be 6d6e 553f
00000360: 9cba 903e e3d9 76be 704c dd3e 6ed3 9abe
00000370: 32ae dc3e f5a9 acbd 735c 1b3d d00c d9be
00000380: 443a 89be ab85 8abe 1ae6 90be a84d 3fbc
00000390: dc96 aa3d ee41 223e 1b9c 47be 1901 af3e
000003a0: 7e88 36be 2f9f a8be c9ce 393e dc2e 2e3e
000003b0: 8632 6a3d c375 4039 ccaf 2b3e 35d7 883d
000003c0: 9ef8 64be 653e 83bd b575 49be e640 d23c
000003d0: 155a 85bd cf95 783e 485a 97be 3c0e 973e
000003e0: 1213 9c3e fb3b 9f3d f638 943d 19a1 07be
000003f0: b3a8 773e 66ea 85bd fff8 bcbd f5f2 5bbe
-0.09919166 0.023878714 -0.24657568 0.060438525 -0.057777602 0.15616094 -0.03155531 0.1625894
-0.12970674 -0.02856044 -0.009024148 0.08504454 -0.016728414 0.15849604 0.15597981 0.16171156
0.073867545 -0.15278952 -0.046776652 -0.20301622 -0.0058911415 -0.17530969 -0.09510052 0.19620053
-0.025251187 -0.13209657 0.16231133 0.1262376 0.13538955 0.229116 -0.14746901 -0.15417333
0.079760276 -0.07285983 0.22128686 0.22245724 0.090191245 0.08823971 -0.067134425 0.26161653
0.20507503 -0.023196822 -0.22317684 -0.19670439 -0.08822453 -0.20885515 -0.065803185 -0.069050446
0.10199977 -0.024756389 -0.048802465 0.1061428 0.07985188 -0.12735069 -0.086789966 -0.0027130225
0.021998737 0.09789063 0.20413366 -0.27001452 0.17346787 0.20473714 -0.0702052 0.017811628
0.2595894 -0.15768337 -0.16848996 -0.2639007 -0.14900526 0.050207347 -0.19183639 0.058976147
-0.10083625 -0.020991467 -0.047990113 0.11128816 -0.028743703 0.2832798 0.087810904 0.24854867
-0.32363862 0.018978067 -0.13074821 -0.12816107 -0.22809027 0.032088384 -0.1307617 0.00051712495
-0.081086926 -0.2581609 0.13329002 -0.28917965 0.1914064 0.08052492 -0.052717328 0.10175791
0.046030782 0.1454348 -0.17548262 -0.081828326 0.12551823 -0.1518601 0.13186815 -0.057318266
-0.17740059 0.13148007 -0.11481121 -0.20353134 0.17120817 0.19540046 -0.0348267 -0.060368128
-0.18830992 -0.09603454 -0.14516926 0.32893282 -0.22322792 0.31936434 -0.2574204 0.2132812
0.6973122 0.11991394 0.3957312 -0.47543636 0.42514884 -0.2208541 0.065957956 -0.359218
-0.030036924 0.20795497 0.07097574 -0.021660283 -0.18723485 -0.044521447 0.03121636 0.10650913
0.18533435 -0.16679755 -0.12153441 -0.031240068 -0.1779407 0.08362773 -0.06809333 -0.015562727
-0.0869396 0.061816733 -0.058631778 0.20833397 0.13882671 0.15443969 0.05941638 0.21207725
0.24697356 -0.04025199 0.28269914 -0.39507458 0.22199002 0.027073082 -0.07478588 -0.16535796
-0.26998472 0.18951014 -0.009644439 0.2686105 -0.11251736 -0.18702893 0.19209976 0.01050104
0.20895097 -0.116671704 -0.10580486 0.044615332 0.26899716 0.0048744534 -0.067018524 -0.053693578
0.103831746 -0.1834223 -0.13270524 0.07899066 0.17341666 0.07466239 -0.15075567 0.10754133
-0.11108642 -0.08373243 -0.017237619 -0.23846205 -0.17476061 0.05107608 0.035305806 -0.1064573
-0.0038657712 -0.20283984 0.01726086 0.13503249 0.10681687 0.26668528 -0.18933454 0.04248636
-0.091605045 0.11403654 -0.16700628 0.14634503 0.23570228 0.07123 0.058619767 -0.15433963
0.013681555 -0.39937901 -0.12203206 0.26071632 -0.24420658 0.06327696 -0.1331748 0.8337162
0.28267372 -0.24106555 0.4322238 -0.30239433 0.4310165 -0.08430854 0.037929963 -0.42392588
-0.26802266 -0.27055106 -0.28300554 -0.01167623 0.083295554 0.15845463 -0.19493143 0.34180525
-0.17825505 -0.32933947 0.18145289 0.17010063 0.05717709 0.00018354417 0.1676628 0.066816725
-0.22360465 -0.06408385 -0.19673808 0.025665712 -0.065113224 0.24275897 -0.29561067 0.29503047
0.304833 0.07775112 0.07237427 -0.13245048 0.24185447 -0.065388486 -0.0922718 -0.214794

lstm.bias_ih_l1 f4 [64]
00000000: 75c9 bebd 5355 893e 2cc6 ecbd d176 673e
00000010: cd52 ff3d fc36 d3bd 6c45 10be 94a5 ef3e
00000020: 0526 163e 8af3 0cbd 927c 6fbd be07 84bd
00000030: 9f93 45bc 84bf 55bd 5908 47be e852 283e
00000040: 2900 18be f703 6a3e f959 693e 66cc 133d
00000050: 8d7c 50bd 1add 0a3e 088c aa3c 028d b6be
00000060: d742 4e3e 2faa 633d 2575 2dbe c295 d13d
00000070: 592b 60bd f857 0cbe 5af4 793d c2eb 61be
00000080: 8cf0 81be 749e eebd c979 83be 9b31 623e
00000090: 3645 353e c896 463e a324 edbd a48e 4e3c
000000a0: 9386 4ebd 01ca 15be 1948 a2bb 2a95 e3bd
000000b0: 1f6d 593d d4c9 06be b4eb de3b 5d03 c6bd
000000c0: 15e6 4d3e 1511 373e 15f6 253b 3410 8a3e
000000d0: cd57 b03d 53ab f2bd 91db 843e 5aa4 943e
000000e0: f690 683c b6b5 523e 6cee 7d3a 09bd 9c3e
000000f0: 3fbb 8a3e 3190 ce3e 82fa 7b3c cbfa 3c3d
-0.09315769 0.2682291 -0.11561236 0.22603919 0.12466965 -0.10313222 -0.14088982 0.46806014
0.14662941 -0.034411944 -0.05846841 -0.06446789 -0.012059121 -0.052184597 -0.19436778 0.16437876
-0.14843811 0.22853075 0.22788228 0.0360836 -0.05090003 0.13560906 0.020818725 -0.35654455
0.20142685 0.05558222 -0.16939218 0.10233642 -0.05472884 -0.13705432 0.061024047 -0.2206259
-0.25378835 -0.11651316 -0.25678852 0.22089235 0.17702183 0.19393456 -0.115792535 0.01260725
-0.05042131 -0.1462784 -0.0049524424 -0.11112435 0.05308258 -0.13162929 0.0068030003 -0.0966861
0.201073 0.1787761 0.0025323678 0.26965487 0.08610497 -0.11849084 0.25948766 0.2903164
0.014194718 0.2057713 0.0009686712 0.30612972 0.27095982 0.40344384 0.01537955 0.046137612

lstm.bias_hh_l1 f4 [64]
00000000: 3f33 25bd d21c 213e fc28 773e adba 4ebd
00000010: 8abf 60bd 7ceb 14bc 6cbd 04be f02d 95bb
00000020: 2892 103d 8292 4dbe f579 8c3d 40cd d9bd
00000030: c9d9 3cbe 112a bc3e 30de a33d cc82 abbd
00000040: eabd a03d 3153 6c3e a686 d43d c9ff 813c
00000050: e460 f03c 2257 783e 6ba3 f7bd 6184 d7bd
00000060: 7c1b a3bd e090 8cbe 97c6 16be 1a8a 5ebe
00000070: b7a7 98bd 6e2a c33d 4035 293e 52bc 6c3e
00000080: f803 f73d 1b70 04be 01df 78be a694 85bc
00000090: 7ef2 4cbe 7f2b 973d 0daf 7dbe 5315 963d
000000a0: 870e 243e 361c 3fbc ca0f 5f3e ec14 d43c
000000b0: e64b 323e 681f ad3a 7555 4d3e 16f3 15bd
000000c0: 0ffb 1ebe 3960 853e 55b2 aebd ca1c 813e
000000d0: 3ddd daba b1a2 0e3e 1bb4 553e 94db 5a3e
000000e0: 89d1 873e a01f 04be 264f 73bd fe65 a23e
000000f0: 2a8d 02be 0663 6e3e 30df 8c3e b83c 9e3d
-0.040332075 0.1573365 0.24136728 -0.050470997 -0.054870166 -0.009089347 -0.12962884 -0.0045525953
0.035295635 -0.2007542 0.06859199 -0.106348515 -0.18442453 0.36750844 0.08001363 -0.08374557
0.07848723 0.2307861 0.10377245 0.015869038 0.029343076 0.24251989 -0.120917164 -0.10523296
-0.079642266 -0.2745428 -0.14724194 -0.21732369 -0.07453864 0.09529577 0.1652422 0.23118713
0.12061304 -0.1293339 -0.24303819 -0.016306233 -0.20014378 0.07381343 -0.24773808 0.07328286
0.16021167 -0.011664441 0.21783367 0.025888883 0.17411765 0.0013208212 0.2005213 -0.036608778
-0.15525459 0.26049975 -0.08530108 0.25217277 -0.0016698014 0.1392925 0.20869486 0.21372825
0.2652705 -0.12902689 -0.059401654 0.3171844 -0.12749162 0.23279962 0.2751403 0.07726425

fc.weight f4 [1, 16]
00000000: 18f7 60bd caaf 18be f769 86be a166 8d3e
00000010: bcad 7cbd bdd9 8f3e c2ee c6bd abde 56be
00000020: 23c2 983e 45d6 4e3d 4490 ba3d 12db aabe
00000030: dfca 8d3e c770 22be 7481 9b3d 882f 9cbe
-0.054923147 -0.14910808 -0.2625272 0.27617362 -0.061689124 0.2809581 -0.09713508 -0.20983379
0.29835615 0.050497312 0.09109548 -0.33370262 0.2769384 -0.15863334 0.075930506 -0.30505013
